networks/mnistconvSmallRELUDiffAI.onnx (onnx, 359438 bytes, 8 tensors)

1.bias f4 [16]
0.14928313 -9.419681e-07 -1.3160238e-17 0.15830745 -4.4590162e-14 0.589524 -6.273955e-23 0.16087365
-4.1929677e-15 -0.0041480316 0.061079152 1.025909 0.076140866 0.012788637 0.16421808 0.13646418
00000000: addd 183e 8edb 7cb5 78c3 72a3 591b 223e
00000010: f5d0 48a9 0beb 163f e7b1 979a 10bc 243e
00000020: 4d11 97a7 36ec 87bb 222e 7a3d fc50 833f
00000030: beef 9b3d 6e87 513c c928 283e 44bd 0b3e

1.weight f4 [16, 1, 4, 4]
0.0009009825 -0.00014028196 -0.0003817087 -0.000742013 0.00011942463 -0.0015150891 0.00014016652 0.0001604302
0.00036658518 0.00037015718 -0.00021942859 1.6186428 -0.00022464493 -0.00034522198 -0.0009066223 0.0044755703
-9.58e-43 -1.15e-42 -1.232e-42 1.15e-42 1.314e-42 -3.56e-43 9.04e-43 -1.288e-42
9.87e-43 1.26e-42 8.21e-43 4.93e-43 -9.87e-43 1.013e-42 -1.369e-42 1.013e-42
-6.3e-43 8.21e-43 1.561e-42 -1.369e-42 -7.12e-43 -1.068e-42 2.41e-42 -9.58e-43
-2.328e-42 1.917e-42 1.862e-42 1.1e-43 -5.5e-44 1.37e-43 6.57e-43 -3.84e-43
0.00066067814 1.9432651e-05 -0.0009292329 -0.0011017341 0.0013369295 0.000424681 -0.00021550007 -0.0018451724
0.00062103337 -0.0003069033 0.0015193784 0.00013894992 0.001330187 0.0010364403 1.751797 0.0038753012
-3.84e-43 -1.232e-42 -3.56e-43 5.5e-44 1.64e-43 7.4e-43 3.84e-43 2.73e-43
1.397e-42 8.49e-43 -1.589e-42 -3.3e-43 1.89e-42 -1.288e-42 -7.95e-43 4.1e-43
0.00013274199 0.00029051612 -3.066282e-05 -0.00015620672 -0.00026522015 0.00014749244 -7.409047e-05 0.00040757252
0.00017784264 1.5612193e-05 9.0419155e-05 -1.1987248e-05 0.00016498749 2.5732355e-05 -0.0005414335 4.6153724e-05
5.2e-43 -1.424e-42 -7.4e-43 9.04e-43 1.096e-42 6.85e-43 -1.89e-42 1.945e-42
-7.12e-43 1.862e-42 1.506e-42 1.478e-42 1.506e-42 1.834e-42 1.644e-42 -3.506e-42
0.001195216 0.002482109 -0.0024874466 -0.0009047441 0.0048150076 1.819234 0.0020691582 -0.00033932432
0.0019723717 0.0039099106 0.0002982398 -0.00017177028 0.0026111223 0.0025990654 0.0007268159 0.00075019326
2.081e-42 4.65e-43 6.57e-43 5.48e-43 -1.92e-43 -2.73e-43 5.5e-44 1.232e-42
-7.67e-43 6.3e-43 9.58e-43 -1.561e-42 1.452e-42 -3.3e-43 1.808e-42 1.013e-42
7.8376604e-16 -6.4293457e-18 -6.9521834e-15 -3.5822302e-15 9.4991496e-17 -2.375174e-17 5.188901e-17 6.1346805e-17
-5.692912e-14 -1.0994407e-14 -2.2982754e-16 -1.9245285e-17 -7.304291e-18 -2.2017573e-19 -1.9857133e-15 -6.3380773e-15
0.0001797529 -0.0009548424 -0.0011516633 -4.7687932e-05 -2.8528435e-05 -0.00033625428 -0.00069594843 9.1691974e-05
5.0859067e-05 0.0010813241 0.0009663724 2.9836517e-06 -0.00047854296 1.2252171e-05 0.0045724134 0.7802864
0.00018804858 2.9091401e-05 -0.00022536982 -0.00043808046 -0.00017028148 -0.00037482753 0.00037767398 -0.0001439967
2.8520077e-05 9.818278e-06 0.00019364944 0.0005802685 0.0002500795 0.0002136821 0.0002829659 0.000703081
0.0004243343 -0.00038272352 -0.00040241552 2.5123486e-06 -0.00024032331 -0.0016248996 -0.0005424117 -0.00016337832
0.93112266 -0.00060234236 -0.00095893047 -0.00077065465 0.0025136487 -0.00029114794 -0.0009885145 -0.00068160053
0.00040189724 -0.00045843536 -0.0011311838 -0.0008047347 -4.9882914e-05 -0.00038950855 -0.0016445665 -0.0010305318
0.003346764 0.24915785 0.0009861533 -0.001578916 0.0022705023 0.004334909 -0.0005495195 -0.0021707627
0.00059118436 0.00059257116 0.00032700202 8.737352e-05 -0.00014206597 0.0003595324 -0.00022602899 0.00044255707
-0.00023123964 0.00039588613 0.00069161254 0.000113501876 -1.7052966e-05 -0.00014426814 0.00026814532 0.00030468652
0.0013187125 0.0005986344 0.00062106294 0.00021410287 0.00037658488 0.001432637 1.505884 0.0026899686
0.00033305836 0.00087075174 0.0011831005 -0.0015403562 -0.00032839034 0.0002533711 0.00068925024 0.00016673212
00000000: e92f 6c3a a718 13b9 1320 c8b9 a683 42ba
00000010: 9c73 fa38 f495 c6ba aaf9 1239 2739 2839
00000020: 3b32 c039 a811 c239 6a16 66b9 b02f cf3f
00000030: aa8e 6bb9 e9fe b4b9 65aa 6dba cea7 923b
00000040: ac02 0080 3503 0080 6f03 0080 3503 0000
00000050: aa03 0000 fe00 0080 8502 0000 9703 0080
00000060: c002 0000 8303 0000 4a02 0000 6001 0000
00000070: c002 0080 d302 0000 d103 0080 d302 0000
00000080: c201 0080 4a02 0000 5a04 0000 d103 0080
00000090: fc01 0080 fa02 0080 b806 0000 ac02 0080
000000a0: 7d06 0080 5805 0000 3105 0000 4e00 0000
000000b0: 2700 0080 6200 0000 d501 0000 1201 0080
000000c0: 5c31 2d3a 4d03 a337 c497 73ba 1068 90ba
000000d0: e93b af3a b8a7 de39 dcf7 61b9 b6d9 f1ba
000000e0: d8cc 223a dde7 a0b9 e125 c73a 16b3 1139
000000f0: ab59 ae3a 2ad9 873a e23a e03f c4f8 7d3b
00000100: 1201 0080 6f03 0080 fe00 0080 2700 0000
00000110: 7500 0000 1002 0000 1201 0000 c300 0000
00000120: e503 0000 5e02 0000 6e04 0080 eb00 0080
00000130: 4505 0000 9703 0080 3702 0080 2501 0000
00000140: a830 0b39 6a50 9839 f49b 00b8 6ccb 23b9
00000150: 3f0d 8bb9 33a8 1a39 0561 9bb8 75af d539
00000160: 457b 3a39 eef6 8237 6a9f bd38 d71c 49b7
00000170: 7e00 2d39 d0db d737 fdee 0dba 2f95 4138
00000180: 7301 0000 f803 0080 1002 0080 8502 0000
00000190: 0e03 0000 e901 0000 4505 0080 6c05 0000
000001a0: fc01 0080 3105 0000 3304 0000 1f04 0000
000001b0: 3304 0000 1d05 0000 9504 0000 c609 0080
000001c0: cba8 9c3a e1aa 223b 6e04 23bb 592c 6dba
000001d0: 36c7 9d3b a9dc e83f b79a 073b 57e7 b1b9
000001e0: e842 013b b51e 803b 115d 9c39 3c1d 34b9
000001f0: 5d1f 2b3b 1555 2a3b ca87 3e3a 9ea8 443a
00000200: cd05 0000 4c01 0000 d501 0000 8701 0000
00000210: 8900 0080 c300 0080 2700 0000 6f03 0000
00000220: 2302 0080 c201 0000 ac02 0000 5a04 0080
00000230: 0c04 0000 eb00 0080 0a05 0000 d302 0000
00000240: bae7 6126 7433 eda2 937a faa7 3e10 81a7
00000250: 1509 db24 3612 dba3 bb4b 6f24 c374 8d24
00000260: 6731 80a9 c10e 46a8 8f7c 84a5 a581 b1a3
00000270: 8abd 06a3 04f8 81a0 f215 0fa7 725a e4a7
00000280: 0d7c 3c39 644e 7aba 68f3 96ba 8704 48b8
00000290: 5950 efb7 494b b0b9 4f70 36ba c14a c038
000002a0: 8251 5538 37bb 8d3a 2754 7d3a bf3a 4836
000002b0: f3e4 fab9 ac8e 4d37 2fd4 953b d9c0 473f
000002c0: e82e 4539 4f09 f437 4051 6cb9 2aae e5b9
000002d0: 968d 32b9 8084 c4b9 8b02 c639 d2fd 16b9
000002e0: 663e ef37 2fb9 2437 600e 4b39 291d 183a
000002f0: 1a1d 8339 da0f 6039 0a5b 9439 f84e 383a
00000300: 3079 de39 48a8 c8b9 4cfb d2b9 d299 2836
00000310: 4cff 7bb9 95fa d4ba a230 0eba 8950 2bb9
00000320: 0e5e 6e3f 83e6 1dba bc60 7bba c205 4aba
00000330: 07bc 243b 37a5 98b9 0b91 81ba 70ad 32ba
00000340: bcb5 d239 275a f0b9 3b44 94ba d5f4 52ba
00000350: 5f39 51b8 f436 ccb9 7f8e d7ba e912 87ba
00000360: 6255 5b3b 3c23 7f3e d041 813a a1f3 ceba
00000370: b5cc 143b da0b 8e3b a10d 10ba 5b43 0ebb
00000380: b6f9 1a3a c756 1b3a 7871 ab39 4d3c b738
00000390: 8bf7 14b9 9f7f bc39 3202 6db9 0107 e839
000003a0: eb78 72b9 f08e cf39 554d 353a db07 ee38
000003b0: f70c 8fb7 af46 17b9 db95 8c39 55be 9f39
000003c0: a6d8 ac3a aded 1c3a d4ce 223a cd80 6039
000003d0: 5e70 c539 52c7 bb3a cfc0 c03f 2f4a 303b
000003e0: 569e ae39 2943 643a 4412 9b3a c7e5 c9ba
000003f0: ce2b acb9 e5d6 8439 cdae 343a d0d4 2e39

3.bias f4 [32]
0.0002431148 2.3166156e-07 -7.802203e-05 -1.6168997e-07 -2e-44 6.5083384e-08 -1.10255975e-07 -1.0847799e-10
-4e-45 1.1606771e-23 -2.3454926e-11 -0.00017336165 -9.327065e-15 1.2531246e-11 -9.62292e-09 1.0809073e-05
-0.00010928352 0.00018030668 6.4371027e-15 -6.913857e-10 1.4922215e-06 -3.5442774e-08 1.8100374e-11 -5.9191336e-31
-1.247702e-19 9.878633e-10 4.469209e-11 -1.7973913e-09 -2e-44 -6.64565e-28 -3.778541e-12 2.3185918e-36
00000000: a2ec 7e39 a5be 7834 c29f a3b8 009d 2db4
00000010: 0e00 0080 f8c3 8b33 ddc5 ecb3 ae8b eeae
00000020: 0300 0080 f281 6019 cc4f cead 6ac8 35b9
00000030: 7f05 28a8 b773 5c2d 0d52 25b2 9d58 3537
00000040: 252f e5b8 b510 3d39 cbeb e727 f20b 3eb0
00000050: 5748 c835 be39 18b3 6b36 9f2d 3d16 408d
00000060: 7b4d 13a0 5ac5 8730 d28e 442e 1608 f7b0
00000070: 0e00 0080 eb9b 5292 12f2 84ac 753e 4504

3.weight f4 [32, 16, 4, 4]
-0.0007698464 -0.0051902574 0.011239575 0.053930305 -0.29488805 -0.42701375 -7.493274e-05 0.016187241
-0.0010744197 -0.28796324 -0.5528271 -0.018712584 0.004686887 0.00018677203 -0.18894526 -0.00044071674
-4.732e-42 3.835e-42 4.847e-42 3.111e-42 5.528e-42 -1.114e-42 5.919e-42 6.974e-42
-4.11e-42 6.802e-42 -7.337e-42 1.0867e-41 3.966e-42 -3.98e-42 2.75e-42 -1.462e-42
7.23e-43 5.05e-42 -9.377e-42 6.15e-42 -4.225e-42 -1.997e-42 1.5425e-41 6.324e-42
-6.52e-43 1.2127e-41 1.398e-41 -1.9739e-41 -7.568e-42 -9.348e-42 5.427e-42 -4.906e-42
0.0010722061 -0.18776858 -0.002576773 0.026485875 0.0013090025 -0.27537435 -0.34348968 -0.0056970096
-0.0048732334 0.0027963717 -0.18803617 -0.508281 0.0075369836 0.05288646 0.001507171 0.0011945972
-1.043e-42 2.185e-42 2.098e-42 4.341e-42 5.253e-42 -5.05e-42 4.414e-42 -2.214e-42
-3.111e-42 5.5e-43 -6.237e-42 7.191e-42 -5.368e-42 4.631e-42 2.648e-42 -4.48e-43
0.12923354 0.12891795 0.12819453 0.12765473 0.12949522 0.1288264 0.12813562 0.12790641
0.12985024 0.12912482 0.12844373 0.12841418 0.12999815 0.12939039 0.12883721 0.12860675
-8.987e-42 1.1953e-41 -5.325e-42 4.225e-42 4.588e-42 -1.3849e-41 -1.0926e-41 4.225e-42
-6.816e-42 1.4297e-41 5.195e-42 1.6816e-41 6.454e-42 -8.031e-42 1.3314e-41 5.99e-42
0.0034525085 -2.9670628e-05 -0.0006149823 0.011431799 0.007330432 -0.033741016 -0.07952555 -3.777761e-05
0.0033591453 -0.04372007 -0.4238464 -0.15127952 -0.0006112032 0.0001377552 -0.001205143 -0.3651565
8.408e-42 5.094e-42 5.5e-43 5.643e-42 6.222e-42 -9.29e-42 1.2951e-41 -1.1837e-41
5.499e-42 -4.442e-42 -1.36e-42 -7.191e-42 -3.285e-42 5.34e-42 -1.2416e-41 -6.107e-42
3.6642737e-23 -4.231778e-23 2.4216608e-23 1.8603672e-23 5.837536e-24 -4.9802805e-23 -7.289794e-23 -1.0466278e-23
1.987972e-23 -6.6614225e-25 1.6670972e-25 1.326257e-24 -1.8523714e-24 1.3915218e-23 1.3281213e-24 1.6077764e-24
-0.019229176 -0.033200882 0.0006976257 0.04397036 -0.021903014 -0.17977048 -0.057327636 0.0034556808
9.930491e-05 -0.000982929 -0.15091997 -0.033433393 0.031714533 0.0028061145 0.0019033926 0.0015170424
0.2388383 0.23874272 0.23783994 0.23720253 0.23920429 0.23880768 0.23793747 0.23751098
0.23948607 0.23891175 0.23840165 0.23814765 0.2392644 0.239056 0.2385957 0.2381849
0.0023069347 0.0018927131 -0.013092809 -0.0021007187 0.0099875685 0.00091163145 -0.49131104 -0.04969365
0.0027897407 -0.0014088128 0.0008112482 -0.4229883 0.0005195558 0.00097330735 0.0042082653 -0.0021246783
0.0026138278 -0.00043725572 -0.004290395 0.006496354 0.0048660166 -0.04894041 -0.06975845 0.00025586464
0.00024698963 -0.00079982105 -0.034724783 -0.08156868 0.0054823575 0.0031444672 -3.5726087e-05 -0.0134103205
0.025314614 0.025099602 0.024637898 0.024430588 0.02527838 0.024665633 0.024111278 0.024188764
0.025598556 0.025039217 0.024501868 0.024448045 0.025959102 0.025370736 0.024938019 0.025041323
0.00359393 -0.00040225682 0.0030806512 0.020761771 0.0009219767 -0.16003495 -0.002542334 0.024240717
0.0014341433 -0.23365389 -0.29539412 -0.0064021796 -0.0044265725 0.0025980908 -0.15862209 -0.4345692
00000000: 84cf 49ba 0913 aabb 3226 383c 06e6 5c3d
00000010: 91fb 96be 8ca1 dabe 3525 9db8 1b9b 843c
00000020: 8bd3 8cba eb6f 93be 1486 0dbf 224b 99bc
00000030: 7594 993b 3cd8 4339 de7a 41be 0010 e7b9
00000040: 310d 0080 b10a 0000 830d 0000 ac08 0000
00000050: 690f 0000 1b03 0080 8010 0000 7113 0000
00000060: 750b 0080 f612 0000 7414 0080 4b1e 0000
00000070: 0e0b 0000 180b 0080 aa07 0000 1304 0080
00000080: 0402 0000 140e 0000 241a 0080 2511 0000
00000090: c70b 0080 9105 0080 002b 0000 a111 0000
000000a0: d101 0080 ce21 0000 f826 0000 0637 0080
000000b0: 1915 0080 0f1a 0080 210f 0000 ad0d 0080
000000c0: 4489 8c3a 6846 40be 14df 28bb e8f8 d83c
000000d0: d692 ab3a defd 8cbe e1dd afbe fbad babb
000000e0: a5af 9fbb 5543 373b 8e8c 40be b41e 02bf
000000f0: cdf8 f63b 799f 583d 448c c53a 0894 9c3a
00000100: e802 0080 1706 0000 d905 0000 1a0c 0000
00000110: a50e 0000 140e 0080 4e0c 0000 2c06 0080
00000120: ac08 0080 8801 0000 6311 0080 0c14 0000
00000130: f70e 0080 e90c 0000 6207 0000 4001 0080
00000140: cc55 043e 1103 043e 6d45 033e ecb7 023e
00000150: 659a 043e 11eb 033e fc35 033e e6f9 023e
00000160: 76f7 043e 4c39 043e c186 033e 027f 033e
00000170: 3c1e 053e ea7e 043e e7ed 033e 7db1 033e
00000180: 0d19 0080 5221 0000 d80e 0080 c70b 0000
00000190: ca0c 0000 9b26 0080 751e 0080 c70b 0000
000001a0: 0013 0080 db27 0000 7b0e 0000 e02e 0000
000001b0: fe11 0000 6316 0080 1d25 0000 b310 0000
000001c0: 7b43 623b 30e5 f8b7 c336 21ba 714c 3b3c
000001d0: 1f34 f03b 0534 0abd 4bde a2bd 6673 1eb8
000001e0: 1b25 5c3b d113 33bd 6502 d9be 05e9 1abe
000001f0: 2739 20ba 6172 1039 e4f5 9dba cbf5 babe
00000200: 7017 0000 330e 0000 8801 0000 bb0f 0000
00000210: 5811 0000 e619 0080 1a24 0000 ff20 0080
00000220: 540f 0000 620c 0080 cb03 0080 0c14 0080
00000230: 2809 0080 e30e 0000 9c22 0080 0611 0080
00000240: 8331 311a e0a2 4c9a 6b35 ea19 76ec b319
00000250: 28d4 e118 e3d4 709a a441 b09a 8072 4a99
00000260: cd43 c019 3a29 4e97 6b60 4e16 743a cd17
00000270: ff51 0f98 6994 8619 4e84 cd17 96ca f817
00000280: 8186 9dbc a6fd 07bd dee0 363a 441a 343d
00000290: f36d b3bc c115 38be 62d0 6abd b478 623b
000002a0: eb41 d038 a0d5 80ba c48a 1abe 74f1 08bd
000002b0: 19e7 013d cae6 373b 427b f93a 7fd7 c63a
000002c0: 0792 743e f978 743e 508c 733e 38e5 723e
000002d0: f8f1 743e 008a 743e e1a5 733e 1436 733e
000002e0: d63b 753e 48a5 743e 901f 743e fadc 733e
000002f0: ba01 753e 19cb 743e 6e52 743e bee6 733e
00000300: f12f 173b ea14 f83a 3983 56bc 36ac 09bb
00000310: e6a2 233c 8dfa 6e3a 1f8d fbbe 928b 4bbd
00000320: 15d4 363b eaa7 b8ba f2a9 543a ec91 d8be
00000330: cd32 083a 8d25 7f3a 7de5 893b 303e 0bbb
00000340: c14c 2b3b 783f e5b9 7196 8cbb 5edf d43b
00000350: 1b73 9f3b bd75 48bd 85dd 8ebd 9225 8639
00000360: 637e 8139 15ab 51ba 933b 0ebd 7b0d a7bd
00000370: 59a5 b33b 6813 4e3b 98d8 15b8 f6b6 5bbc
00000380: 9860 cf3c ae9d cd3c 6bd5 c93c a822 c83c
00000390: 9b14 cf3c 950f ca3c 0485 c53c 8427 c63c
000003a0: 10b4 d13c 0b1f cd3c 24b8 c83c 4447 c83c
000003b0: 2fa8 d43c 4ad6 cf3c d14a cc3c 7623 cd3c
000003c0: 2488 6b3b ffe5 d2b9 c0e4 493b 9714 aa3c
000003d0: cfb0 713a 34e0 23be 499d 26bb 7894 c63c
000003e0: ddf9 bb3a f742 6fbe e63d 97be 60c9 d1bb
000003f0: c80c 91bb bb44 2a3b d46d 22be db7f debe

6.bias f4 [100]
0.00014098668 -0.00014696074 5.7689433e-11 9.2e-44 -0.000103065504 -7.8179066e-05 -1.0125992e-06 -6.398365e-05
9.9190156e-11 0.0001766741 -5.833709e-06 -5.3120945e-11 4.5520687e-10 1.8e-44 -1.9000246e-11 2.5771988e-06
0.00024641588 1.3751738e-09 -1.4608813e-05 -9.078999e-09 -5.253601e-05 -6.2726445e-05 0.00035848332 3.4279115e-08
7.521764e-05 1.82e-43 5.2151243e-12 -1.0712949e-05 1.0625853e-14 6.117448e-08 2.3132396e-09 6.101086e-10
-0.00014493692 3.976097e-05 -6.7741043e-06 -3.3475044e-05 5.267481e-13 0.00013009674 7.195733e-06 3.4794806e-10
-0.000221626 -0.00031743522 -0.00021634283 1.5026651e-10 -5.2327334e-05 -0.00019370344 2.4155142e-09 8.840984e-05
-2.6938846e-05 -0.00020841039 -0.00010288762 -3.1431995e-05 1.4434621e-05 6.3897644e-11 2.691849e-10 -0.000101380254
2.0270017e-11 -5.5908576e-13 -0.00024615467 4.2065778e-07 1.1025772e-10 -1.0995939e-20 9.755682e-07 -0.00010671294
1.1551091e-09 -0.0002742635 -0.0002587542 -1.1632432e-08 -2.4067806e-06 5.8818016e-05 8.8e-44 3.132082e-36
9.103981e-05 1.1943793e-35 -8.1e-44 4.6244588e-11 -0.00017276539 1.6182716e-09 0.00012012391 0.00019944314
-8.7071605e-10 3.1708205e-17 -5.002138e-07 -6.564048e-05 -3.7299622e-05 -8.526204e-08 1.03088545e-11 0.00014222699
-0.00016913134 0.00024540923 -6.592468e-05 -0.00017840363 1.097458e-10 -3.7106472e-13 3.2084175e-05 3.7018724e-06
0.00025155084 0.00013942571 -3.9631865e-05 -4.510626e-09
00000000: d3d5 1339 7919 1ab9 87b8 7d2e 4200 0000
00000010: df24 d8b8 11f4 a3b8 a5e8 87b5 f62e 86b8
00000020: 181f da2e 9841 3939 2ebf c3b6 dea0 69ae
00000030: ac40 fa2f 0d00 0000 c020 a7ad f0f3 2c36
00000040: 6131 8139 a000 bd30 6018 75b7 dcf9 1bb2
00000050: 1c5a 5cb8 018c 83b8 d1f2 bb39 493a 1333
00000060: 2abe 9d38 8200 0000 aa7d b72c c4bb 33b7
00000070: 196b 3f28 075f 8333 f1f6 1e31 93b4 2730
00000080: 35fa 17b9 04c5 2638 1d4d e3b6 8e67 0cb8
00000090: 3344 142b 946a 0839 e072 f136 5649 bf2f
000000a0: 4764 68b9 6f6d a6b9 16da 62b9 4338 252f
000000b0: 0c7a 5bb8 df1c 4bb9 2dfe 2531 ac68 b938
000000c0: bbfa e1b7 bd88 5ab9 5fc5 d7b8 d9d5 03b8
000000d0: 3a2c 7237 2d83 8c2e 68fc 932f 1c9c d4b8
000000e0: 054c b22d 605e 1dab 520e 81b9 c4d6 e134
000000f0: 9475 f22e 19b5 4f9e 45f0 8235 13cb dfb8
00000100: cac1 9e30 06cb 8fb9 67a9 87b9 fad7 47b2
00000110: 2d84 21b6 5db3 7638 3f00 0000 5a39 8504
00000120: a0ec be38 3204 7e05 3a00 0080 c762 4b2e
00000130: 5b28 35b9 df69 de30 08eb fb38 9c21 5139
00000140: 3257 6fb0 713a 1224 6e46 06b5 77a8 89b8
00000150: 2a72 1cb8 4d19 b7b3 f45a 352d c422 1539
00000160: d958 31b9 45aa 8039 0b41 8ab8 dc11 3bb9
00000170: 6555 f12e 10e4 d0aa 1f92 0638 af6d 7836
00000180: 95e2 8339 ce32 1239 643a 26b8 e3fb 9ab1

6.weight f4 [100, 800]
0.048267562 0.0018144677 -0.004249537 0.03025335 0.014083554 0.008266876 -0.054572463 0.041498847
0.0052945875 0.0013239495 -0.0013777397 -0.0752892 0.09485961 0.014816417 -0.09939183 -0.0010255611
0.0038233711 0.06606959 -0.048514888 -0.0038701757 -0.020465352 -0.0016214929 -0.025904143 0.0006422828
0.02386463 3.423843e-05 1.3572883e-05 -2.4463259e-06 1.9495865e-06 1.7470559e-06 2.5034387e-05 -6.0404847e-07
1.2699872e-05 1.9009904e-05 3.9940273e-06 2.3306711e-06 3.7764917e-07 -4.0020994e-05 2.0042024e-05 3.5110763e-06
3.7388131e-06 -5.220563e-07 4.274504e-06 9.903795e-06 -2.730808e-06 -2.2528713e-05 2.9986613e-06 1.5186733e-07
9.073107e-06 -8.471301e-06 0.005730179 0.037934534 -0.044379648 -0.045491524 -0.028231941 0.024213789
0.055946752 0.015821304 -0.0015333092 -0.0004333334 0.05899297 0.13555843 0.045454353 0.12912923
0.005335852 0.078837566 0.03193121 4.917748e-06 0.0012634087 0.00105012 0.00095181336 -0.08607576
-0.13082255 -0.036190026 0.00273126 1.979235e-07 4.4488596e-07 1.4386491e-06 3.5645614e-06 1.2628824e-06
2.4695873e-07 1.6170558e-06 4.673155e-06 7.095465e-06 3.8338835e-06 1.0948042e-06 4.6973273e-06 8.736492e-06
8.879909e-06 3.7535283e-06 3.9068664e-06 9.765228e-06 9.507532e-06 6.187766e-06 1.973319e-06 1.8379366e-06
5.2627934e-06 5.489269e-06 2.39496e-06 4.013538e-07 7.847816e-14 1.1048354e-08 1.8529786e-07 5.3092723e-08
2.359994e-10 1.7757394e-09 2.3767634e-06 1.1101647e-05 1.6120535e-05 1.2195793e-06 8.231836e-08 2.1110886e-06
3.0598965e-06 2.6043354e-05 4.3646255e-06 1.1429359e-09 1.6708512e-06 5.8394363e-07 8.726885e-06 5.0803203e-07
2.1290753e-13 1.0660626e-06 7.952571e-06 1.3627252e-06 7.792295e-10 -2.4244351e-05 -3.0719248e-06 -2.567939e-06
-4.204449e-06 -1.6705195e-06 -5.4477186e-06 -3.9870306e-06 3.5902855e-07 -5.7946636e-07 -8.536876e-08 -1.2834087e-06
2.009076e-07 5.453979e-07 -9.991043e-07 3.5687717e-07 3.2983257e-07 -2.505946e-06 -3.3114852e-06 -5.9569616e-06
-1.2588886e-06 2.545931e-07 -2.1388335e-06 -6.0119004e-07 -2.5078693e-06 -9.688771e-07 -3.0473544e-08 3.7717393e-07
3.264095e-08 -9.278583e-08 2.042384e-09 1.1488666e-09 -3.3456136e-08 -1.0539684e-06 -1.7723476e-06 3.0281852e-10
8.8388624e-08 6.263115e-08 -2.002627e-06 -2.1029818e-08 2.1472648e-09 1.1620211e-06 -1.6681879e-06 -1.1077886e-08
-2.5870363e-12 -8.88317e-12 8.7312776e-07 2.6026733e-08 1.3907797e-07 -5.5843797e-12 6.1059257e-12 3.5597427e-08
1.6699245e-09 -7.0638746e-14 9.784282e-13 6.7846845e-10 -9.984846e-09 -3.1257445e-11 -2.8593537e-11 -3.5144044e-14
-1.0155799e-10 -5.4622245e-09 1.2120029e-10 1.8613965e-10 2.6640597e-12 -2.530837e-10 2.950921e-09 -4.3951464e-13
6.130592e-11 2.2711477e-13 -1.1880886e-09 -1.3169106e-10 -1.270459e-10 -7.682262e-12 7.9662595e-14 -5.8509224e-09
-7.936257e-24 -4.1610052e-10 -1.4854658e-06 -5.322596e-06 -6.3966477e-09 -1.043582e-15 -1.8336998e-06 -7.117375e-05
-7.001583e-05 -8.9252964e-08 1.3609712e-10 -2.4370063e-05 -0.00016184695 -4.0269388e-05 -1.2397191e-08 1.3647534e-08
-5.0962695e-05 -0.00013861536 -2.2623803e-05 -3.400253e-08 -9.247421e-11 -1.35577e-05 -7.1101276e-05 -1.1602896e-05
-3.615002e-09 1.1641897e-31 1.1667926e-22 1.7007538e-10 4.6945267e-08 6.832682e-12 1.8363046e-28 3.341438e-12
1.0843487e-07 1.422085e-06 1.9460819e-08 4.3219364e-16 5.5930567e-09 4.779481e-08 2.4388015e-07 4.6709037e-08
1.0915553e-11 3.4416283e-07 4.7262628e-07 1.0251337e-07 8.5017354e-10 1.7641879e-14 1.8347158e-08 1.0860383e-07
2.536389e-09 5.5043324e-16 -3.2045655e-13 -2.5705933e-16 -6.050106e-13 -1.896409e-12 2.152528e-13 -4.4256534e-16
00000000: 35b4 453d 6fd3 ed3a b33f 8bbb e0d5 f73c
00000010: b5be 663c cb71 073c 6087 5fbd b2fa 293d
00000020: 387e ad3b 6088 ad3a 4695 b4ba 3931 9abd
00000030: c145 c23d 8fc0 723c f28d cbbd 1f6c 86ba
00000040: 8691 7a3b 7e4f 873d 8cb7 46bd c6a2 7dbb
00000050: f4a6 a7bc 4688 d4ba ed34 d4bc de5e 283a
00000060: c27f c33c 3c9b 0f38 17b7 6337 8f2b 24b6
00000070: a4d5 0236 627c ea35 f000 d237 e525 22b5
00000080: 8911 5537 7577 9f37 6f04 8636 a068 1c36
00000090: b5bf ca34 37dc 27b8 eb1f a837 d59f 6b36
000000a0: 52e8 7a36 7023 0cb5 b66d 8f36 7a28 2637
000000b0: ed42 37b6 0bfc bcb7 9c3c 4936 f910 2334
000000c0: b338 1837 f61f 0eb7 3ac4 bb3b 3e61 1b3d
000000d0: 6fc7 35bd 5255 3abd ac46 e7bc ff5b c63c
000000e0: 6c28 653d ae9b 813c 52f9 c8ba 0631 e3b9
000000f0: 9da2 713d d4cf 0a3e 582e 3a3d 743a 043e
00000100: 5fd8 ae3b 9775 a13d 4dca 023d 2203 a536
00000110: f698 a53a 2ea4 893a 1d83 793a 7d48 b0bd
00000120: 59f6 05be fe3b 14bd f0fe 323b cc84 5434
00000130: a9d8 ee34 9b17 c135 b336 6f36 4f80 a935
00000140: c095 8434 9d09 d935 19ce 9c36 9515 ee36
00000150: cfa4 8036 30f1 9235 bc9d 9d36 f392 1237
00000160: ebfa 1437 20e5 7b36 ba17 8336 56d5 2337
00000170: 8a82 1f37 81a0 cf36 5d6d 0436 05af f635
00000180: 0d97 b036 7630 b836 19b9 2036 a579 d734
00000190: 94b7 b029 2dcf 3d32 4af6 4634 1108 6433
000001a0: f6bd 812f 470e f430 7c80 1f36 3641 3a37
000001b0: 963a 8737 6db0 a335 ffc6 b033 3aac 0d36
000001c0: 9f58 4d36 ad77 da37 d973 9236 7b15 9d30
000001d0: 0342 e035 4dc0 1c35 b069 1237 b25f 0835
000001e0: 6bb6 6f2a a215 8f35 086c 0537 e2e6 b635
000001f0: 6731 5630 5960 cbb7 4427 4eb6 db54 2cb6
00000200: f113 8db6 9d36 e0b5 8ccb b6b6 55c8 85b6
00000210: 82c0 c034 a08c 1bb5 f953 b7b3 9641 acb5
00000220: 10b9 5734 7567 1235 f618 86b5 d398 bf34
00000230: d813 b134 d32b 28b6 e23a 5eb6 e9e1 c7b6
00000240: 15f7 a8b5 02af 8834 e188 0fb6 7761 21b5
00000250: de4c 28b6 5d0a 82b5 04e2 02b3 647e ca34
00000260: 1b31 0c33 8d41 c7b3 005a 0c31 26e6 9d30
00000270: 69b1 0fb3 1476 8db5 66e1 edb5 eb79 a62f
00000280: 29d0 bd33 d77f 8633 df64 06b6 0fa5 b4b2
00000290: 158f 1331 bef6 9b35 80e6 dfb5 0f51 3eb2
000002a0: e70b 36ac 3e46 1cad e260 6a35 6491 df32
000002b0: 7655 1534 9f7b c4ac 4ad5 d62c c9e3 1833
000002c0: 3f83 e530 7710 9fa9 97b3 892b f97e 3a30
000002d0: d189 2bb2 c178 09ae ec82 fbad 5346 1ea9
000002e0: 1154 dfae 3cae bbb1 d942 052f a7a9 4c2f
000002f0: 6f77 3b2c 5d22 8baf 27c9 4a31 bc6c f7aa
00000300: 2ad0 862e 60b5 7f2a 274a a3b0 bdcb 10af
00000310: 3eb0 0baf d525 07ad 5c62 b329 4209 c9b1
00000320: 7182 1999 f1c0 e4af 3760 c7b5 c098 b2b6
00000330: 82c9 dbb1 6165 96a6 721d f6b5 1e43 95b8
00000340: 76d5 92b8 56ab bfb3 efa3 152f 506e ccb7
00000350: 76b5 29b9 ede6 28b8 6cfb 54b2 7d76 6a32
00000360: c7c0 55b8 4759 11b9 3fc8 bdb7 2d0a 12b3
00000370: 5a5a cbae e175 63b7 351c 95b8 0faa 42b7
00000380: ca6b 78b1 d71e 170c 7b0e 0d1b f7ff 3a2f
00000390: dea0 4933 5467 f02c 7ec7 6811 ff21 6b2c
000003a0: b3dc e833 78de be35 cb2a a732 8624 f925
000003b0: 0c2d c031 f346 4d33 a2ee 8234 219d 4833
000003c0: 4807 402d 61c5 b834 43bd fd34 5225 dc33
000003d0: a5b1 6930 67e7 9e28 d499 9d32 9639 e933
000003e0: a14c 2e31 cea6 1e26 a866 b4aa 432f 94a5
000003f0: 9c4b 2aab ab72 05ac 655a 722a 1e1f ffa5

8.bias f4 [10]
4.3285578e-05 -0.00021768648 -8.311838e-05 3.9967475e-05 -7.9401805e-05 6.4606276e-05 0.00012542574 0.00017842984
-0.0002756264 0.00014403212
00000000: 898d 3538 c542 64b9 d74f aeb8 c0a2 2738
00000010: 8584 a6b8 3b7d 8738 b784 0339 e518 3b39
00000020: f381 90b9 5407 1739

8.weight f4 [10, 100]
0.6684114 -0.19858609 -6.0505747e-09 -9.9523874e-08 -0.0022488132 0.017260585 -0.14643914 -0.09291769
6.688651e-08 -0.041223656 -0.11400025 -1.1893956e-08 1.5857493e-06 -3.1669978e-07 -3.73046e-07 -0.0844797
7.97811e-05 2.7339206e-08 -0.090549305 5.924355e-08 -0.047464978 -0.6614072 0.003236625 -0.043293014
-0.1725618 -2.9555186e-12 1.7925338e-11 -1.4808003e-06 -3.274671e-11 1.1693328e-06 -1.0799893e-08 9.768299e-09
0.0023169674 1.2332999e-05 8.143252e-06 0.06283775 0.008659492 0.0024082088 0.004089438 -1.2263018e-09
0.009958468 0.004291787 -0.0013788118 -1.6671312e-07 0.005652174 -0.023939043 -3.2846928e-10 -0.11358995
0.0007676079 -0.04128543 -0.0014731258 -0.38499805 0.3945463 -1.6054276e-10 0.00623501 -0.45420423
4.936322e-09 5.240465e-10 -0.0013094116 3.5044875e-06 3.3546684e-08 -0.002551246 2.8418746e-08 0.010081291
2.1138355e-06 -0.0021149763 0.009655105 -8.936519e-09 -0.0333785 -0.203384 -0.00019677375 -0.00057651836
-0.0057330886 1.1635889e-06 -2.9547377e-07 7.651865e-09 0.0033909113 5.1899733e-06 0.0007116349 -0.14021087
-1.7659384e-07 -2.2160122e-05 -0.026101489 0.0006313425 0.0034447464 0.0002096454 -7.821334e-12 0.006394645
0.5158412 -0.0017326968 -0.057486404 -0.11286347 1.6571893e-09 -1.1706305e-09 0.011590183 4.4091828e-07
0.008331985 0.0040777735 -0.0032038915 1.5500874e-06 0.011392192 -0.0013127916 2.0285563e-08 2.3795387e-06
0.0919422 -0.014708466 -0.001797915 0.004187335 9.1538745e-08 -0.098928414 -0.031891722 -7.2759065e-09
-0.0037475475 -6.85361e-07 -1.7950597e-08 -0.0056009446 0.0027013517 9.381243e-09 0.026776845 -4.6653076e-07
0.00064185075 -0.00017027177 -0.7711009 0.0007916198 0.0017600354 -2.8349064e-07 -1.5482594e-10 2.6588875e-08
1.0945796e-08 7.811895e-08 2.4474346e-07 1.2015741e-07 -0.00362346 -1.8079037e-07 -0.00015182781 -0.0004890933
0.009111389 0.057349753 0.0048565273 -2.2022208e-08 0.0029955606 -0.0010775699 0.0029110198 -6.781417e-07
-0.003539743 0.5972129 -8.66309e-11 -0.0044901613 -0.11275172 0.013143246 0.12255792 -0.111747734
-0.015064222 -2.0205203e-10 0.004186922 -0.009597674 -1.3112995e-09 4.1393428e-10 0.0015757027 3.7426722e-07
-2.590689e-08 -0.003025981 1.0993088e-08 0.001064738 -1.0870056e-05 -0.0014411771 -0.029465111 3.2386445e-09
-0.06371175 -0.002443462 -0.00042837305 0.0006058521 0.0049665626 -4.0226105e-06 1.8812051e-06 -2.0601558e-09
-0.16512972 1.0844252e-06 -0.3216283 -0.0031089713 -5.899616e-08 0.00012795246 0.43670312 0.62741107
-0.0017521769 -1.5375492e-05 -1.994996e-10 -0.2322264 -0.0073222364 -0.0972753 -0.010064786 0.003129441
3.3681297e-07 -1.2670619e-09 -0.100197904 -5.6104554e-06 -0.0024031498 -0.045396686 -0.0092428615 -1.1542671e-07
-0.00481158 0.15661696 -3.3421945e-09 -4.959267e-06 -0.14956178 -0.001951343 -0.0026542982 0.37412107
1.1936621e-06 -0.005403414 -0.48603275 4.9992867e-08 -0.0002248998 8.66574e-06 -5.4920932e-08 -0.014710891
-0.0018598371 4.449453e-09 0.0012501995 -1.1890531e-06 0.064286724 -0.00012352047 -0.00012152008 0.041394588
-0.31775105 -7.954393e-16 -5.5708462e-08 3.8517973e-07 -8.207088e-09 -2.1222866e-07 -2.8039416e-08 -1.8982156e-07
0.026198406 1.3820307e-05 9.147122e-05 -0.69225794 -0.00010282951 0.0020941908 9.8383156e-05 -1.6833824e-11
0.0013165296 0.0017177976 0.010588049 -2.4575588e-08 0.0040434655 -0.0024291736 1.6441558e-09 -0.2974789
-0.5542246 -0.028003095 0.008145226 -0.008285981 -0.0031794743 -2.5710822e-10 0.0013254044 -0.5234837
00000000: 021d 2b3f 275a 4bbe 6be5 cfb1 d4b9 d5b3
00000010: d360 13bb 1266 8d3c 24f4 15be a14b bebd
00000020: 3fa3 8f33 23da 28bd f778 e9bd 2c56 4cb2
00000030: eed5 d435 e306 aab4 0d47 c8b4 b103 adbd
00000040: 2750 a738 8dd7 ea32 ea71 b9bd f972 7e33
00000050: a36a 42bd fb51 29bf 8f1d 543b 0454 31bd
00000060: 0ab4 30be e4f9 4fac 46ac 9d2d e9bf c6b5
00000070: 8505 10ae f8f1 9c35 6f8a 39b2 6fd1 2732
00000080: 43d8 173b d4e9 4e37 009f 0837 14b1 803d
00000090: 8be0 0d3c 0ad3 1d3b b100 863b a98a a8b0
000000a0: d828 233c 1ea2 8c3b 3fb9 b4ba c101 33b4
000000b0: df35 b93b d01b c4bc f193 b4af d9a1 e8bd
000000c0: 4b39 493a e91a 29bd e615 c1ba 771e c5be
000000d0: f901 ca3e c584 30af 0e4f cc3b 758d e8be
000000e0: 599c a931 7e0c 1030 90a0 abba a32e 6b36
000000f0: f814 1033 ce32 27bb 7c1d f432 002c 253c
00000100: 6bdb 0d36 6a9b 0abb 7230 1e3c 3a87 19b2
00000110: e5b7 08bd e543 50be 0d55 4eb9 7e21 17ba
00000120: a2dc bbbb 9c2c 9c35 9ba1 9eb4 4275 0332
00000130: 0d3a 5e3b 8825 ae36 028d 3a3a 7093 0fbe
00000140: bf9d 3db4 80e4 b9b7 cad2 d5bc ae80 253a
00000150: 41c1 613b 42d4 5b39 2898 09ad 2c8a d13b
00000160: 2b0e 043f a81b e3ba dd76 6bbd f724 e7bd
00000170: 2ac3 e330 e6e3 a0b0 c0e4 3d3c 59b7 ec34
00000180: e182 083c d89e 853b 61f8 51bb 990c d035
00000190: 51a6 3a3c fa11 acba 6d40 ae32 2ab0 1f36
000001a0: 314c bc3d c7fb 70bc 04a8 ebba e935 893b
000001b0: f593 c433 fb9a cabd e5a0 02bd 8dff f9b1
000001c0: 6a99 75bb a6f9 37b5 c831 9ab2 2188 b7bb
000001d0: 2909 313b 252b 2132 1d5b db3c 8077 fab4
000001e0: e041 283a fb8a 32b9 de66 45bf b584 4f3a
000001f0: fdb0 e63a a832 98b4 a13b 2aaf 8e65 e432
00000200: 1f0c 3c32 59c2 a733 4965 8334 9e04 0134
00000210: 9277 6dbb 471f 42b4 f833 1fb9 7f36 00ba
00000220: ef47 153c 93e7 6a3d 8123 9f3b 592b bdb2
00000230: 2b51 443b 3f3d 8dba cfc6 3e3b 8b09 36b5
00000240: 08fb 67bb f2e2 183f dc80 beae 3422 93bb
00000250: 60ea e6bd c556 573c a6ff fa3d ffdb e4bd
00000260: edcf 76bc 9728 5eaf 7332 893b 903f 1dbc
00000270: 4039 b4b0 1290 e32f cf87 ce3a e5ee c834
00000280: db89 deb2 894f 46bb 1ddc 3c32 ae8e 8b3a
00000290: 895e 36b7 e1e5 bcba d160 f1bc d68e 5e31
000002a0: 4e7b 82bd 7d22 20bb 4297 e0b9 0cd2 1e3a
000002b0: 8cbe a23b f6f9 86b6 b77d fc35 a592 0db1
000002c0: c417 29be 918c 9135 77ac a4be e2bf 4bbb
000002d0: f762 7db3 fa2a 0639 8d97 df3e 039e 203f
000002e0: 4da9 e5ba 9efa 80b7 255a 5baf c2cc 6dbe
000002f0: 5fef efbb 4638 c7bd c6e6 24bc 4f17 4d3b
00000300: 39d3 b434 c724 aeb0 8f34 cdbd 7241 bcb6
00000310: 2a7e 1dbb e0f1 39bd 5f6f 17bc 81e0 f7b3
00000320: 75aa 9dbb 3260 203e 82ac 65b1 c767 a6b6
00000330: b926 19be 35c4 ffba bcf3 2dbb cc8c bf3e
00000340: eb35 a035 1f0f b1bb 49d9 f8be bdb7 5633
00000350: 15d3 6bb9 1263 1137 34e2 6bb3 f305 71bc
00000360: c7c5 f3ba cde1 9831 bcdd a33a 8e97 9fb5
00000370: c2a8 833d 4685 01b9 99d8 feb8 5f8d 293d
00000380: 44b0 a2be 1045 65a6 1a44 6fb3 b3ca ce34
00000390: 28ff 0cb2 f8e0 63b4 54db f0b2 c1d1 4bb4
000003a0: 0a9e d63c c4dd 6737 3dd4 bf38 d137 31bf
000003b0: 2ca6 d7b8 b13e 093b 0e53 ce38 6712 94ad
000003c0: 678f ac3a b927 e13a 7f79 2d3c 4a1a d3b2
000003d0: 0c7f 843b c532 1fbb 97f8 e130 284f 98be
000003e0: aae1 0dbf bf66 e5bc 8e73 053c ecc1 07bc
000003f0: ba5e 50bb c458 8daf 31b9 ad3a 0703 06bf
